model.pt (torch, 89957 bytes, 6 tensors)

fc1.weight f4 [128, 37]
0	0x3dff333e	0.124609455
1	0xbbc25213	-0.005930194
2	0x3e1e7aec	0.15476578
3	0xbc82eae2	-0.015981141
4	0x3e168b98	0.14701688
5	0xbd004c2d	-0.031322647
6	0xbda6763d	-0.08128021
7	0x3def8882	0.11695959
8	0xbe37a136	-0.17932591
9	0x3e261620	0.16219378
10	0x3e12fec6	0.14355001
11	0x3c9f1ecf	0.01942387
12	0x3e5b0afe	0.21390912
13	0xbe08698d	-0.13321514
14	0x3cea3acf	0.028592495
15	0x3e1a2a1d	0.15055127
16	0xbdd82037	-0.105530195
17	0x3d141d6d	0.036160875
18	0xbc843e5c	-0.016143017
19	0x3e051b80	0.12998772
20	0xbe03b56b	-0.12862174
21	0xbd9e558d	-0.07731161
22	0xbd514a1e	-0.051096074
23	0xbdd61e84	-0.10455039
24	0x3d9859b7	0.07438987
25	0xbe43efe3	-0.19134478
26	0x3e854387	0.26028082
27	0x3cf6e95e	0.030140575
28	0x3d5df83c	0.054191813
29	0x3e02b14c	0.12762946
30	0xbe072bff	-0.13200377
31	0xbc7ba944	-0.01536018
32	0x3e2115a5	0.15730913
33	0xbd9fd08e	-0.078034505
34	0xbd6bb4fa	-0.05754564
35	0x3d0f3654	0.03496392
36	0x3c822f88	0.015891805
37	0x3e3cec7f	0.18449591
38	0x3e238645	0.15969189
39	0xbd5ca64f	-0.05386954
40	0x3da82017	0.08209246
41	0xbd8c4bb8	-0.0685038
42	0xbd3408f3	-0.043953847
43	0x3e624b1d	0.22098966
44	0x3cf0f3cc	0.029413126
45	0xbda7992d	-0.08183513
46	0xbcd759f8	-0.026288018
47	0x3e6e817f	0.23291586
48	0x3e1b1f9c	0.15148777
49	0xbd342a27	-0.043985512
50	0x3d502a0e	0.050821356
51	0xbd9a8e21	-0.0754664
52	0xbdfed03c	-0.12442061
53	0x3d42d471	0.04756588
54	0x3c590b22	0.013247283
55	0x3e08b742	0.13351157
56	0x3e3e1565	0.18562849
57	0x3e8a3e40	0.27000618
58	0xbe0c160f	-0.1368029
59	0xbe0dde35	-0.13854297
60	0xbe07ca69	-0.13260807
61	0xbef9a095	-0.48755327
62	0xbdc5ef22	-0.096647516
63	0x3ddf1660	0.108929396
64	0x3da4f395	0.08054272
65	0x3d5f8fbe	0.054580443
66	0x3e1ecfcc	0.15508956
67	0x3e729637	0.23690115
68	0xbd62e1c2	-0.05539108
69	0xbc837851	-0.016048582
70	0xbe37336f	-0.17890714
71	0xbe912418	-0.2834785
72	0x3d0baa01	0.034097675
73	0xbcf46e56	-0.029837769
74	0x3dbd0011	0.09228528
75	0x3da03db7	0.07824271
76	0xbc1ddb79	-0.009634846
77	0x3ceb21ef	0.028702704
78	0xbdb50d67	-0.08840447
79	0x3e10467c	0.14089388
80	0x3cdb2cdc	0.026754789
81	0x3dd488e9	0.10377676
82	0xbdce3040	-0.10067797
83	0xbf13ce29	-0.5773645
84	0x3e1bd208	0.1521684
85	0xbd91bfd1	-0.07116664
86	0xbd907bbb	-0.0705485
87	0x3db313de	0.08744024
88	0xbc885322	-0.016641203
89	0xbda0bce3	-0.07848527
90	0x3e001c1a	0.1251072
91	0x3df9af4b	0.121916376
92	0x3dd3964e	0.10331403
93	0xbe779e54	-0.24181491
94	0x3dc95605	0.0983086
95	0xbb8f4c71	-0.004373126
96	0xbd0f8b47	-0.035044935
97	0x3d809bbe	0.062797055
98	0x3e635f97	0.22204433
99	0xbd7d8743	-0.061896574
100	0x3e49e334	0.19715577
101	0x3d5cdc7a	0.0539212
102	0xbd8d8320	-0.06909776
103	0xbe234bd4	-0.15946895
104	0x3c840952	0.016117726
105	0xbb1e44c3	-0.0024149872
106	0x3d26b345	0.04069831
107	0xbdb0ba48	-0.0862928
108	0x3df1bd4e	0.11803685
109	0x3c3a1142	0.011356654
110	0x3de784ba	0.113046125
111	0xbe6228ea	-0.2208592
112	0x3b9e5199	0.0048315045
113	0xbbdd0ed7	-0.006746154
114	0xbd92db61	-0.071707495
115	0xbd963df3	-0.073360346
116	0xbe512c9c	-0.20427173
117	0x3e50d501	0.20393755
118	0x3e6a32ec	0.22870988
119	0xbe4219c2	-0.18955138
120	0x3d9b8fdd	0.07595799
121	0x3d4950f3	0.049149465
122	0xbd862f18	-0.06551951
123	0xbe20f244	-0.15717417
124	0xbe0040c6	-0.12524709
125	0x3e3900e2	0.18066743
126	0x3da60ce4	0.081079274
127	0x3dc476fa	0.095930055
128	0x3dcf16b9	0.10111756
129	0xbc9958ed	-0.01871916
130	0x3e29382a	0.16525331
131	0xbd8a69d0	-0.067584634
132	0xbe35af12	-0.17742565
133	0x3db42ced	0.087976314
134	0x3c8cdad3	0.017194187
135	0x3dea6bfd	0.114463784
136	0xbcab69c9	-0.020924466
137	0x3c58a8a1	0.013223798
138	0xbdba0e42	-0.09084751
139	0x3d47baf4	0.048762277
140	0x3e84d173	0.25941047
141	0x3ea26168	0.3171494
142	0xbe3d3ee7	-0.18481027
143	0xbd37fd40	-0.044919252
144	0xbdcb80c9	-0.09936673
145	0x3deb02ca	0.11475141
146	0x3e2d936a	0.16950765
147	0x3dbb8cc1	0.09157706
148	0xbde73ebe	-0.11291264
149	0x3db6c65c	0.08924553
150	0x3d87a947	0.06624084
151	0x3d1ec942	0.038766153
152	0xbdb90d08	-0.09035689
153	0x3d9869de	0.074420676
154	0xbe50f7f4	-0.20407087
155	0xbda07a64	-0.07835844
156	0x3e18775e	0.14889285
157	0x3d7c9833	0.061668586
158	0xbe0b6ab9	-0.1361493
159	0x3d9d8210	0.07690823
160	0x3d8b0a03	0.06789019
161	0x3e22082e	0.15823433
162	0xbde569e2	-0.11201836
163	0x3e106e59	0.14104594
164	0x3d92af50	0.071623445
165	0xbe307744	-0.17232996
166	0xbcc98b83	-0.024602657
167	0x3d2cd9b3	0.0421998
168	0xbd0e1335	-0.034686286
169	0xbe239493	-0.15974645
170	0xbd6edfac	-0.05831878
171	0x3ca5de12	0.020247493
172	0xbd8f3143	-0.06991818
173	0x3e9c1f1b	0.30492482
174	0xbe71b476	-0.23603997
175	0xbcceda02	-0.025250439
176	0xbdd4992c	-0.10380778
177	0xbe463af9	-0.19358434
178	0x3b0450a8	0.0020189676
179	0x3d94db7c	0.07268426
180	0x3e2f41ca	0.1711494
181	0xbe319678	-0.17342556
182	0x3d251a6b	0.040308397
183	0x3dc30857	0.09523075
184	0xbdf2baf9	-0.118520685
185	0xbdae2930	-0.0850395
186	0xbe07ca61	-0.13260795
187	0x3cabea2d	0.020985687
188	0x3a821df4	0.000992714
189	0xba82dbde	-0.0009983738
190	0xbdd6a4e1	-0.10480667
191	0x3dd23bce	0.10265313
192	0x3e45bec8	0.19311059
193	0xbe2aeb00	-0.16691208
194	0x3dea0671	0.1142701
195	0xbe069538	-0.1314286
196	0xbe3be0e7	-0.18347512
197	0x3e65951c	0.22420162
198	0xbb3445ab	-0.0027507346
199	0xbd158455	-0.036503155
200	0x3b3010d6	0.0026865504
201	0xbc1fa27b	-0.009743328
202	0xbe91b03c	-0.2845477
203	0x3cc12277	0.023576004
204	0xbe18d994	-0.1492675
205	0x3d414853	0.047188114
206	0xbc8d024f	-0.017213015
207	0x3db143cd	0.0865551
208	0xbe954f56	-0.2916209
209	0x3dbb368c	0.09141263
210	0xbddbd983	-0.107348464
211	0x3dfc6a88	0.12325007
212	0xbd503cd8	-0.050839275
213	0xbdbe9ef1	-0.093076594
214	0xbdc439cb	-0.09581336
215	0x3da32203	0.079654716
216	0xbe6878db	-0.22702353
217	0x3d0ad7e8	0.03389731
218	0x3e0f8098	0.14013898
219	0xbe66e2c9	-0.22547449
220	0xbdcb3776	-0.09922688
221	0xbdf82fee	-0.12118517
222	0x3e32d840	0.17465305
223	0xbc84ae2b	-0.016196331
224	0x3e2b8d02	0.16753009
225	0xbddeab80	-0.10872555
226	0xbde88b8d	-0.11354742
227	0x3e8b8221	0.27247718
228	0xbe9f3508	-0.31095147
229	0xbd062d43	-0.03275801
230	0xbea1dccd	-0.3161377
231	0xbf300b64	-0.6876738
232	0xbc2c2a0d	-0.010508073
233	0x3e2d5646	0.16927442
234	0xbcc637d5	-0.024196545
235	0xbcf50030	-0.029907316
236	0xbd20f07f	-0.039291855
237	0xbda3c01c	-0.07995626
238	0xbbc945dd	-0.0061423616
239	0x3e2d1c7c	0.16905397
240	0x3dc8a828	0.09797698
241	0x3e265e93	0.16247015
242	0x3ca91b87	0.020643009
243	0x3dd1e68e	0.10249053
244	0x3d9f0731	0.077650435
245	0xbd7c03cd	-0.061527062
246	0x3e5a5057	0.2131971
247	0x3e419887	0.18905841
248	0x3d55549f	0.052082654
249	0x3d966841	0.073441036
250	0x3dcd0c00	0.100120544
251	0xbdb4443a	-0.08802076
252	0x3c71a7d2	0.014749484
253	0x3da1f1af	0.079074256
254	0x3de168fa	0.11006351
255	0x3d4fc041	0.050720457

fc1.bias f4 [128]
0	0xbe0a7be3	-0.13523822
1	0xbddf6991	-0.10908807
2	0xbd8b25cd	-0.06794319
3	0x3cdc3d68	0.02688475
4	0x3e33a068	0.17541659
5	0xbd6bdcbc	-0.057583556
6	0x3d144b38	0.036204547
7	0xbd186481	-0.037205223
8	0x3e4a0a90	0.19730592
9	0x3e21641d	0.15760846
10	0x3d96d146	0.073641345
11	0x3de7d245	0.113194026
12	0x3e2a627f	0.16639136
13	0x3e10b6f2	0.14132288
14	0xbd4f7353	-0.05064709
15	0xbe1f5c61	-0.15562584
16	0x3e36e9ec	0.17862672
17	0x3e000c31	0.1250465
18	0xbdd053f5	-0.101722635
19	0xbe29f2a4	-0.16596466
20	0x3ddff325	0.10935048
21	0xbcbf591f	-0.023357926
22	0xbd281058	-0.04103121
23	0xbdc7a3a1	-0.097480066
24	0xbd1f473e	-0.0388863
25	0xbc0f3cfa	-0.008742565
26	0x3e45ab28	0.19303572
27	0xbde14f38	-0.11001438
28	0xbca9f9b9	-0.02074896
29	0x3e1837bd	0.14865012
30	0xbd8a208d	-0.0674449
31	0xbd6fd123	-0.058549058
32	0x3cb08933	0.021549797
33	0x3d448240	0.04797578
34	0x3e167c3c	0.14695829
35	0xbd746be2	-0.059673198
36	0xbdb65734	-0.089033514
37	0x3d9719e2	0.07377984
38	0xbccc4b74	-0.024938323
39	0x3daa8251	0.08325637
40	0xbd959ea0	-0.07305646
41	0x3d8d08f3	0.068864726
42	0xbd473440	-0.048633814
43	0x3d395b42	0.045253046
44	0x3db06dac	0.08614668
45	0xbdc052f6	-0.093908235
46	0x3d1c150f	0.03810602
47	0xbe13e840	-0.14444065
48	0x3ceef5aa	0.029169876
49	0x3e03f101	0.12884904
50	0x3db370f9	0.08761782
51	0xbdb14f38	-0.08657688
52	0x3b9e61bc	0.004833428
53	0xbc351052	-0.011051254
54	0x3c181b98	0.009283923
55	0x3cf96dbc	0.030447833
56	0xbe075a2d	-0.13217993
57	0x3cbda924	0.023151942
58	0x3d6f0854	0.05835755
59	0xbe01a158	-0.12659204
60	0xbd6aa6a6	-0.057287835
61	0xbe1541c9	-0.14575876
62	0xbdde0a88	-0.108418524
63	0x3dd71a5a	0.10503073
64	0x3db5efe5	0.08883647
65	0x3cc36b5c	0.023854904
66	0xbdcf19a6	-0.10112314
67	0xbd6debc6	-0.05808618
68	0xbdaa0b3e	-0.083029255
69	0x3d6a31c4	0.057176366
70	0xbd8cd5dc	-0.06876728
71	0x3e2754ed	0.1634099
72	0x3d2038dc	0.039116725
73	0x3dfab8d2	0.12242283
74	0x3d677783	0.05651046
75	0xbd672a19	-0.05643663
76	0xbd99f130	-0.07516706
77	0xbbef3524	-0.007300036
78	0x3e224022	0.15844777
79	0x3dcd1880	0.10014439
80	0x3d30d03c	0.043167338
81	0x3d17edd7	0.037092056
82	0xbd9da8d1	-0.07698215
83	0x3e1ed977	0.15512644
84	0xbdf50f0c	-0.119657606
85	0x3d66ace4	0.056317225
86	0xbdecc1e2	-0.11560418
87	0x3df241ea	0.11828978
88	0xbd89bc96	-0.06725423
89	0x3dee3666	0.116314694
90	0xbe0e618e	-0.13904402
91	0x3d3be6c6	0.04587438
92	0x3b74d78d	0.0037359924
93	0xbd666b01	-0.05625439
94	0xbd9cb4e3	-0.07651689
95	0xbe28a9c9	-0.16471018
96	0x3e0c5bac	0.13706845
97	0xbd9779e1	-0.073962934
98	0xbd8d9b7d	-0.06914423
99	0x3db11bc9	0.08647878
100	0xbca4cf97	-0.020118518
101	0xbd105bec	-0.035243914
102	0xbdd0c03c	-0.10192916
103	0xbdc3986a	-0.09550555
104	0xbdb3a27c	-0.08771226
105	0x3dedbd88	0.11608416
106	0x3dea43a6	0.11438684
107	0x3e13fbe6	0.1445156
108	0xbd9d4e91	-0.07681001
109	0xbcd22e27	-0.025656773
110	0x3cede52f	0.029039947
111	0xbdaab4fa	-0.083353
112	0xbca06f1f	-0.019584237
113	0xbd90b53e	-0.07065819
114	0x3dc0851a	0.09400387
115	0x3e277d02	0.1635628
116	0x3d157d2b	0.036496323
117	0xbc953e3b	-0.01821815
118	0xbdc47364	-0.095923215
119	0xbde14bb3	-0.110007666
120	0x3dab2c9d	0.08358119
121	0x3d8d93fc	0.069129914
122	0x3c16f0f6	0.009212723
123	0x3d91d052	0.07119812
124	0x3e191063	0.14947657
125	0x3dd4c62a	0.10389359
126	0xbd3416b6	-0.04396697
127	0xbdcba423	-0.09943416

fc2.weight f4 [128, 128]
0	0xbd23367f	-0.039846893
1	0x3d7b689a	0.061379053
2	0xbd12aca4	-0.035809174
3	0x3d387c95	0.045040686
4	0xbdd682c7	-0.104741625
5	0xbd850a4e	-0.06496106
6	0xbd85aae7	-0.06526738
7	0x3cb08e85	0.021552334
8	0xbc5187a9	-0.012788692
9	0x3dc16dc6	0.09444766
10	0x3be1a8b6	0.006886567
11	0xbd6f9e31	-0.058500472
12	0x3cdecfb9	0.02719866
13	0x3d8ab02c	0.06771883
14	0x3c9bf69f	0.019038497
15	0x3c81525d	0.015786344
16	0x3de5ffb5	0.11230413
17	0xbdd09ad9	-0.10185785
18	0x3b4b5871	0.0031028057
19	0xbd93db86	-0.07219605
20	0x3d1ab4be	0.037770025
21	0x3d9d0e8c	0.0766879
22	0x3d2b8299	0.041872595
23	0xbdca84e9	-0.09888632
24	0xbadd2b24	-0.0016873819
25	0x3d97cae7	0.074117474
26	0x3da69653	0.08134141
27	0x3db60df5	0.08889381
28	0x3d3bd615	0.04585846
29	0x3ce6debb	0.028182378
30	0xbd6b864f	-0.057501134
31	0xbcb828b2	-0.022480343
32	0xbd8d6949	-0.06904847
33	0x3c442505	0.011971717
34	0xbd2528b4	-0.04032202
35	0xbc243b6d	-0.010023934
36	0x3d88843b	0.06665846
37	0x3c865f9b	0.01640301
38	0x3dc298f9	0.095018335
39	0x3d3b0ba7	0.04566541
40	0x3cdbfba2	0.026853386
41	0xbbb0992f	-0.0053893547
42	0x3c753955	0.014967282
43	0x3d88e68e	0.066846
44	0xbdd1a4ae	-0.10236488
45	0x3ccc2ce7	0.024923755
46	0xbd75fa95	-0.060053427
47	0xbda6550e	-0.08121692
48	0x3db9043e	0.09034012
49	0x3d6bbbb2	0.057552047
50	0xbbd458a5	-0.006480294
51	0xbce1afee	-0.02754971
52	0x3ac509a1	0.0015032777
53	0x3cd92b75	0.02650998
54	0x3d5b2728	0.05350414
55	0xbd2c724e	-0.042101197
56	0xbb8e1c34	-0.004336858
57	0x3d9d8a58	0.076924026
58	0xbd006028	-0.0313417
59	0x3dbab12c	0.09115824
60	0x3d6984d4	0.05701144
61	0x3c85fb95	0.016355315
62	0x3d63a85c	0.055580482
63	0x3cdc4fd4	0.026893534
64	0x3db24c94	0.08706012
65	0x3d812acf	0.06306993
66	0x3c8b2660	0.016986072
67	0x3d2742b5	0.0408351
68	0xbc912638	-0.01771842
69	0x3d972ceb	0.07381614
70	0xbdadff20	-0.08495927
71	0x3d5cb743	0.05388571
72	0x3cdbaf72	0.026817057
73	0xbd71cfae	-0.05903595
74	0xbca916ec	-0.020640813
75	0xbd1b9d45	-0.03799178
76	0x3dc259a5	0.094897546
77	0x3cece012	0.028915439
78	0x3cceeff1	0.025260897
79	0xbc7a1d72	-0.015265809
80	0xbd4fe31f	-0.05075371
81	0xbde5d640	-0.112225056
82	0x3d6e227d	0.05813836
83	0x3ddf34da	0.108987525
84	0x3da6bbc1	0.0814128
85	0xbd70c0ee	-0.058777742
86	0x3da2e064	0.07952955
87	0x3df15812	0.11784376
88	0xbcf3997b	-0.029736271
89	0x3d8bb50a	0.0682164
90	0xbcac8f15	-0.02106432
91	0xbc779dbd	-0.015113291
92	0xbda8205d	-0.08209298
93	0xbcad39ba	-0.02114569
94	0x3dceb61d	0.10093329
95	0xbcb6aac6	-0.022298228
96	0xbc2accdd	-0.01042482
97	0x3d022fe5	0.031783957
98	0x3c62abb3	0.013834882
99	0xbda5932a	-0.0808471
100	0xbd19f6b9	-0.03758881
101	0xbd5fefca	-0.05467204
102	0xbcbbcca0	-0.022924721
103	0x3c9709c8	0.018437281
104	0xbcc1729c	-0.02361422
105	0xbc2ed157	-0.010670028
106	0x3db028c3	0.08601525
107	0x3da0b881	0.07847691
108	0xbdb8b947	-0.09019714
109	0x3d283489	0.041065726
110	0xbc9ac80e	-0.018894222
111	0xbc8f4264	-0.017487712
112	0x3d10adc1	0.035321955
113	0x3c4f0843	0.012636247
114	0x3d4aad33	0.049481582
115	0xbd2fd1e1	-0.042924765
116	0x3d76bd8e	0.060239367
117	0xbd71dffb	-0.059051495
118	0xbc17607d	-0.009239313
119	0x3db71593	0.08939662
120	0x3b5d72a6	0.003379026
121	0x3dac3941	0.08409358
122	0xbd6cbdfa	-0.057798363
123	0xbc467823	-0.012113604
124	0xbd3fa284	-0.046785846
125	0xbd86d919	-0.06584377
126	0xbd7135ca	-0.058889188
127	0x3cb031d5	0.021508137
128	0xbd884faf	-0.066558234
129	0xbe408af8	-0.18803012
130	0x3d28d8d2	0.0412224
131	0x3d3d0ed5	0.046156723
132	0xbd2fc511	-0.042912547
133	0xbc13930d	-0.009007228
134	0xbd6f1ac1	-0.058375124
135	0xbc9d6bce	-0.019216444
136	0xbd837cc8	-0.064202845
137	0x3db9e900	0.09077644
138	0xbcddb481	-0.02706361
139	0xbdf6ee1b	-0.12057134
140	0x3da47880	0.08030796
141	0x3da3b1f7	0.079929285
142	0xbdfbe68e	-0.12299834
143	0xbcafbd0c	-0.02145245
144	0xbd87027b	-0.0659227
145	0x3dd15790	0.10221779
146	0x3d026eb1	0.031843845
147	0xbd6157f5	-0.055015523
148	0xbde0134c	-0.109411806
149	0x3d1b2875	0.03788038
150	0x3d8572f5	0.06516067
151	0x39edefde	0.00045382878
152	0xbdd0e6bb	-0.10200258
153	0xbd412eee	-0.047163896
154	0xbb842cc3	-0.0040336563
155	0x3ce699f0	0.028149575
156	0x3daea3b2	0.08527316
157	0x3d1b4ac5	0.037913103
158	0x3e1fe2a9	0.15613808
159	0xbde6ec0c	-0.11275491
160	0x3d9517b7	0.07279914
161	0x3d05107a	0.032486416
162	0xbd0c3920	-0.034234166
163	0x3cbc2987	0.02296902
164	0x3c16cc9d	0.009204057
165	0xbe9d8069	-0.30762032
166	0x3bd258df	0.0064192857
167	0xbdf70646	-0.120617434
168	0xbe15524b	-0.14582174
169	0x3df61df5	0.120174326
170	0xbdb0059e	-0.085948214
171	0x3da1fa89	0.07909114
172	0xbde10fee	-0.109893665
173	0x3daf63c3	0.0856395
174	0x3db4bcbc	0.08825061
175	0xbea9dd19	-0.33176497
176	0xbc692c1b	-0.014231707
177	0xbdcbe177	-0.099551134
178	0xbda71b19	-0.08159465
179	0x3d85d2d5	0.06534354
180	0x3de98b21	0.1140349
181	0x3dc35dac	0.09539351
182	0x3d406277	0.046968903
183	0x3d83a8e1	0.064286955
184	0xbd6715ad	-0.056417156
185	0xbe03e5f8	-0.12880695
186	0x3db75b1e	0.08952926
187	0xbd66d7e3	-0.05635823
188	0x3d7079e3	0.05870999
189	0xbd4cd989	-0.050012145
190	0x3d3f1809	0.04665378
191	0x3b377553	0.0027993515
192	0xbdc37e63	-0.09545591
193	0xbcbab0d8	-0.022789404
194	0x3d61a739	0.055091117
195	0x3bc63bfb	0.0060496307
196	0xbbc9bd35	-0.0061565884
197	0x3d6206ad	0.055182148
198	0xbe001a35	-0.12509997
199	0xbd904b5f	-0.07045626
200	0x3d1a4fe5	0.03767385
201	0xbd9ba64c	-0.07600078
202	0xbd204b0e	-0.039134078
203	0xbd65a1bf	-0.056062456
204	0xbc683e24	-0.014174972
205	0x3dc5bdaf	0.0965532
206	0x3d8208a6	0.06349306
207	0xbd148736	-0.03626176
208	0xbda5591c	-0.08073637
209	0xbd987103	-0.0744343
210	0xbda83b5d	-0.08214448
211	0x3b689bbe	0.003549322
212	0x3d9fa8b4	0.077958494
213	0xbc835be0	-0.01603502
214	0x3d86c31c	0.06580183
215	0x3d0d30a0	0.0344702
216	0x3d841e77	0.06451123
217	0x3deef2d7	0.11667412
218	0x3cb763fe	0.022386547
219	0xbdbe6f12	-0.09298529
220	0x3e0900cb	0.13379209
221	0x3ccdf672	0.025141928
222	0x3c28a2fa	0.010292763
223	0xbda7be11	-0.08190549
224	0xbd063030	-0.0327608
225	0xbb39c6e5	-0.002834731
226	0xbd92a1a8	-0.0715974
227	0x3d080235	0.03320523
228	0x3d19a0b8	0.03750679
229	0x3d5f3c0a	0.054500617
230	0x3d794d70	0.060864866
231	0x3d51ed4c	0.051251695
232	0xbd8b0a5f	-0.067890875
233	0x3cb2b66d	0.021815503
234	0xbbb96ec9	-0.0056589586
235	0xba136fcd	-0.00056242646
236	0xbd15304b	-0.03642301
237	0xbddeef54	-0.10885492
238	0x3db361b9	0.087588735
239	0x3cee96f2	0.02912471
240	0x3ae71d35	0.0017632606
241	0x3b21c8c8	0.0024686325
242	0xbdeabae8	-0.11461431
243	0x3da8f71e	0.08250259
244	0xbd9a5cd3	-0.07537236
245	0xbc1e79ff	-0.009672641
246	0x3d1e8b73	0.038707208
247	0xbcd8980b	-0.026439687
248	0x3d92c5d2	0.071666375
249	0x3d3d998f	0.046289023
250	0x3cc1b01d	0.023643548
251	0x3daf6392	0.085639134
252	0x3d7cbb08	0.061701804
253	0x3d97d19a	0.07413025
254	0xbe06c65b	-0.13161604
255	0xbdc36574	-0.09540835

fc2.bias f4 [128]
0	0x3dc78b43	0.09743359
1	0xbd974933	-0.073870085
2	0x3da422cc	0.080144495
3	0xbc9d374c	-0.019191407
4	0x3dc121a7	0.09430247
5	0x3d0b4297	0.033999052
6	0x3d72f215	0.0593129
7	0xbd1c5c9d	-0.03817426
8	0x3d7ee748	0.062232286
9	0x3bd18f23	0.006395237
10	0xbdb20698	-0.08692664
11	0xbd7f694a	-0.06235627
12	0x3dda48de	0.106584296
13	0xbbc88e0b	-0.0061204485
14	0x3d045067	0.03230324
15	0xbd50cbd3	-0.050975632
16	0x3e131a26	0.14365444
17	0x3d401b6b	0.046901148
18	0x3dba5593	0.09098353
19	0x3d897957	0.06712597
20	0x3d119d18	0.035550207
21	0x3d7a42aa	0.061098732
22	0x3da0a0c5	0.07843164
23	0xbcf03531	-0.029322239
24	0xbd0e4d68	-0.03474179
25	0x3d906035	0.070496
26	0x3ccc7883	0.024959808
27	0xbd33d9b5	-0.043908793
28	0x3d4b00a1	0.049561147
29	0xbe037251	-0.12836577
30	0x3d6ee276	0.05832144
31	0xbd01954d	-0.031636525
32	0x3bd0e239	0.006374624
33	0xbcb2ad12	-0.021811042
34	0x3da55cee	0.080743656
35	0xbd92fbd4	-0.07176939
36	0xbb1fd664	-0.0024389261
37	0x3d7bb7e0	0.061454654
38	0x3dbcf5d3	0.09226575
39	0xbd184cf0	-0.03718275
40	0x3ce4983f	0.027904628
41	0xbd7bacdb	-0.061444145
42	0x3ce4331d	0.027856404
43	0xbd80ac06	-0.06282811
44	0x3ce68c25	0.028142998
45	0xbd90fe64	-0.07079771
46	0xbdc04eac	-0.093900055
47	0xbd8f8723	-0.07008197
48	0x3d9d61a4	0.07684639
49	0x3bf42805	0.0074510598
50	0x3da56e6e	0.080777034
51	0x3d1236fb	0.035696965
52	0x3d839e6f	0.06426703
53	0x3c99f6e6	0.018794488
54	0xbd97b135	-0.074068464
55	0x3cf65a69	0.030072408
56	0xbd2a4d1b	-0.04157744
57	0x3a04c3f3	0.0005064599
58	0x3d81bbc7	0.06334644
59	0x3cbdf3f9	0.023187624
60	0x3dbc6f95	0.0920097
61	0x3cf095ad	0.029368246
62	0xbd3c0485	-0.045902748
63	0x3c425923	0.011862072
64	0x3d6f903d	0.058487166
65	0xbdaf8bc7	-0.08571582
66	0xbd699d29	-0.057034645
67	0xbd7b1ed9	-0.061308715
68	0x3c9fc646	0.019503724
69	0x3ce8e719	0.028430508
70	0xbd4c24f1	-0.049839918
71	0xbd937781	-0.07200528
72	0x3dc25f72	0.09490861
73	0x3c80f34a	0.01574101
74	0x3dfcf72e	0.12351833
75	0x3ccde981	0.025135757
76	0xbc98e578	-0.018664107
77	0x3ce94452	0.02847496
78	0x3d9fe681	0.07807637
79	0xbd4a411e	-0.049378507
80	0x3c08cbc4	0.008349363
81	0xbd93c07a	-0.07214446
82	0x3d221884	0.03957416
83	0xbd1e2cff	-0.03861713
84	0xbd14fdb3	-0.03637476
85	0x3ce4dc10	0.027936965
86	0x3d6da7d4	0.05802138
87	0x3d779960	0.060449004
88	0xbcd022f6	-0.025407296
89	0x3d5f9730	0.054587543
90	0xbcb48a2a	-0.022038538
91	0x3d71cc4e	0.05903273
92	0xbc6c44af	-0.014420672
93	0x3d5f7013	0.05455024
94	0xbd8fefd9	-0.07028169
95	0xbc01b27b	-0.007916088
96	0xbc4c1b5f	-0.012457698
97	0xbd701ad3	-0.05861933
98	0x3d30b114	0.043137625
99	0xbcb5a02f	-0.022171108
100	0x3d86ef2f	0.065885894
101	0x3dc09558	0.09403485
102	0x3dc91a8f	0.09819519
103	0x3da5620a	0.0807534
104	0x3b48f7b3	0.0030665218
105	0x3dfbb62f	0.12290608
106	0x3dc1b732	0.0945877
107	0xbc278ce2	-0.01022646
108	0x3dcf2c94	0.101159245
109	0x3dc50bc0	0.09621382
110	0x3c81be58	0.015837833
111	0xbcb26af3	-0.021779513
112	0xbd834ab6	-0.06410734
113	0xbd297ad1	-0.041376892
114	0x3dad358f	0.08457481
115	0xbd5aec1f	-0.05344784
116	0x3c836a98	0.016042039
117	0x3d103902	0.035210617
118	0x3dbbe6c3	0.09174874
119	0x3dc7d6c6	0.09757762
120	0xbca262e3	-0.019822543
121	0xbcfbc95f	-0.03073567
122	0x3bb3634f	0.005474485
123	0xbda5157c	-0.080607384
124	0x3d3ed4c3	0.046589624
125	0x3d99e1f6	0.07513802
126	0x3c89ed52	0.016836796
127	0x3dda40cd	0.10656891

fc3.weight f4 [4, 128]
0	0x3d8d4736	0.06898348
1	0x3c92b0d4	0.017906584
2	0x3cd15986	0.025555383
3	0xbc13456c	-0.008988719
4	0xbc6bd43e	-0.014393864
5	0x3e3a2747	0.18179046
6	0x3e4849e4	0.19559437
7	0xbd4491d9	-0.047990654
8	0x3e1e1fc4	0.15441805
9	0xbd6a6b01	-0.057230953
10	0xbe2a98c3	-0.16659836
11	0x3d654caa	0.055981316
12	0x3e2780ea	0.1635777
13	0x3dbfce0a	0.09365471
14	0xbbd681a7	-0.0065462175
15	0xbe24551c	-0.16048092
16	0x3d91c664	0.07117918
17	0x3c21d1c0	0.009876668
18	0x3d89f88b	0.06736859
19	0x3db3bc24	0.08776119
20	0xbe064fc5	-0.13116367
21	0x3e6cf0db	0.23138754
22	0x3c407166	0.011745786
23	0xbcda1678	-0.026622042
24	0xbd9c8608	-0.07642752
25	0x3c9a1e1c	0.018813185
26	0xbe204eb9	-0.1565503
27	0x3cf50e48	0.029914036
28	0xbbe41cbe	-0.006961434
29	0xbd4db55e	-0.050221793
30	0x3da53d3f	0.080683224
31	0x3e55b5f5	0.20870192
32	0x3e4e2946	0.20132932
33	0xbc13c4a5	-0.009019052
34	0xbd011930	-0.03151816
35	0xbe684e9f	-0.22686242
36	0x3cde6c5c	0.02715128
37	0x3e28ded7	0.16491257
38	0xbdb64136	-0.08899157
39	0xbcd67cab	-0.026182493
40	0x3dd3856c	0.103281826
41	0x3de2cf9c	0.110747546
42	0xbe2c5fd0	-0.16833425
43	0x3df21d41	0.11821986
44	0x3e90c169	0.2827256
45	0xbe1da2fa	-0.15394202
46	0x3db78ee2	0.089627996
47	0xbd4731a5	-0.04863133
48	0xbd1ee7f4	-0.038795426
49	0xbd7df854	-0.062004402
50	0xbcbf9e2b	-0.02339085
51	0xbd51a5de	-0.051183574
52	0x3d9d6887	0.07685953
53	0x3dfb7a26	0.12279157
54	0x3aa4de0c	0.0012578382
55	0xbcfa4438	-0.030550107
56	0xbd887222	-0.06662394
57	0xbdfd86ca	-0.123792246
58	0x3e0a36fe	0.1349754
59	0xbdf68ff6	-0.12039177
60	0xbd563054	-0.052292183
61	0x3dc317fb	0.09526058
62	0x3df4626f	0.11932837
63	0xbd3386b6	-0.043829642
64	0x3e2d9459	0.16951121
65	0xbc75c72d	-0.0150011005
66	0x3df7021c	0.12060949
67	0x3dec8530	0.11548841
68	0xbc57a749	-0.0131624425
69	0xbead9e92	-0.33910042
70	0x3d379ae9	0.04482547
71	0x3e838d4a	0.25693733
72	0xbe0d51e7	-0.13800775
73	0x3da237aa	0.07920773
74	0x3da21927	0.07914954
75	0x3e7acc46	0.24491987
76	0xbdb5a371	-0.088690646
77	0xbdc74dad	-0.09731612
78	0x3da42ac5	0.0801597
79	0x3a4e6337	0.00078730605
80	0x3d24edeb	0.04026596
81	0xbe21da22	-0.15805867
82	0xbd5476d9	-0.051871154
83	0xbde4a7f7	-0.11164849
84	0x3c055fc2	0.008140506
85	0x3d36d6a7	0.044638302
86	0x3df31bcb	0.118705355
87	0xbdad123d	-0.08450744
88	0x3d5d7ef9	0.05407617
89	0x3e424142	0.18970206
90	0xbde528b1	-0.11189402
91	0x3ccf32f6	0.025292855
92	0x3b3ab38b	0.0028488364
93	0x3e4d80f9	0.2006873
94	0xbe114b41	-0.14188863
95	0xbe188393	-0.14893942
96	0xbdcb6d6a	-0.099329785
97	0xbd9ccfb2	-0.07656802
98	0x3d0a21d6	0.033723675
99	0x3d35efd2	0.044418164
100	0x3e30ac55	0.1725324
101	0x3db376c2	0.08762886
102	0x3d91f538	0.0712685
103	0xbd43fd56	-0.04784902
104	0x3e30b4ed	0.17256518
105	0x3db7d963	0.0897701
106	0x3d487ea5	0.048948903
107	0x3e18e13e	0.14929673
108	0x3dcf4539	0.10120625
109	0x3d62214f	0.055207547
110	0x3e281c3f	0.16417025
111	0x3b95fc81	0.00457722
112	0x3cb159a8	0.021649197
113	0x3d947d41	0.07250453
114	0x3e32f223	0.1747518
115	0x3dc3ed39	0.09566731
116	0x3cc254b6	0.023722034
117	0x3d5b66c9	0.05356482
118	0x3d6b4d3f	0.057446714
119	0x3b892308	0.0041850843
120	0x3e18b313	0.14912061
121	0x3e4d8f5e	0.20074221
122	0xbd9d8803	-0.07691958
123	0x3c15ed98	0.009150885
124	0xbd4b845c	-0.049686775
125	0xbe1f6c41	-0.1556864
126	0xbd83931e	-0.06424545
127	0x3d245e2f	0.040128883
128	0xbd9cc35d	-0.0765445
129	0xbd3424df	-0.043980476
130	0x3bbb0c49	0.0057082516
131	0x3de499b4	0.11162129
132	0x3d1ce296	0.038302027
133	0x3e357bcd	0.17723008
134	0xbe116600	-0.14199066
135	0x3c0be9ac	0.008539598
136	0x3b3a899c	0.002846337
137	0x3d832fbc	0.06405589
138	0x3e0f503f	0.13995455
139	0x3e134100	0.14380264
140	0x3e1f658b	0.1556608
141	0x3e81c0a5	0.2534229
142	0xbb5f0dd2	-0.0034035337
143	0xbc5dbb4f	-0.013533427
144	0x3d109dfd	0.03530692
145	0x3db6a290	0.08917725
146	0x3dfd7486	0.12375741
147	0x3dc09482	0.094033256
148	0x3d582e1b	0.052778345
149	0xbc7f20b8	-0.015571766
150	0x3da0f51b	0.0785925
151	0xbdb1f968	-0.086901486
152	0x3e0f61ea	0.14002195
153	0xbdbe0150	-0.09277594
154	0xbdc716fe	-0.09721182
155	0xbdb086f2	-0.08619489
156	0x3d9c1487	0.07621103
157	0x3ccf4328	0.025300577
158	0xbd00d558	-0.03145346
159	0x3d8776e4	0.066144735
160	0x3d154245	0.036440153
161	0xbd0b1a47	-0.033960607
162	0x3da16e82	0.07882406
163	0x3cb7714f	0.022392897
164	0x3e14cb2e	0.14530632
165	0x3af80f8f	0.0018925535
166	0xbdb98274	-0.09058085
167	0x3c384370	0.011246547
168	0x3dd243d6	0.10266845
169	0xbd9b8ccc	-0.07595214
170	0x3d4c21ed	0.04983704
171	0x3cd8b966	0.026455592
172	0x3e17e002	0.14831546
173	0x3d9e4f66	0.07729988
174	0xbd4ed5c6	-0.05049684
175	0xbddbb05c	-0.10726997
176	0x3e67f1a6	0.22650775
177	0x3bd277e6	0.0064229844
178	0x3dcf2fa4	0.101165086
179	0x3e4c08b0	0.19925189
180	0xbc64a7c2	-0.013956012
181	0x3da81137	0.082064085
182	0xbdb9d4fd	-0.090738274
183	0x3e7405c1	0.2383032
184	0x3c25528a	0.01009048
185	0xbe322228	-0.17395842
186	0x3e0319a0	0.12802744
187	0x3cf50bc4	0.029912837
188	0x3dfbc34e	0.12293111
189	0xbcedc231	-0.029023262
190	0x3e2d8036	0.1694344
191	0x3e0b08ef	0.13577627
192	0xbdc82d24	-0.09774235
193	0xbdf3b7c3	-0.11900284
194	0xbe14a10b	-0.14514558
195	0xbcfd42b6	-0.0309156
196	0x3dc9b2b5	0.09848539
197	0xbe33281a	-0.17495766
198	0x3d4a84c5	0.049443025
199	0xbe23ba8a	-0.15989128
200	0xbd43ae3d	-0.04777359
201	0x3e006cfe	0.12541577
202	0x3ce438bc	0.027859084
203	0x3dea3d6f	0.11437499
204	0xbe435bc0	-0.19077969
205	0xbdd644a3	-0.1046231
206	0x3e0af3f9	0.1356963
207	0x3e5b468b	0.21413629
208	0x3c8db996	0.017300408
209	0xbce3c610	-0.027804404
210	0x3e068f95	0.1314071
211	0x3d5a0582	0.05322791
212	0xbd36a63f	-0.04459214
213	0xbca22a92	-0.01979569
214	0xbe2241e2	-0.15845445
215	0xbd49593d	-0.04915737
216	0x3d9a3201	0.07529069
217	0xbcae5dd3	-0.021284973
218	0xbdc31ce3	-0.09526994
219	0x3d652ba3	0.05594982
220	0xbe0165de	-0.12636515
221	0x3e4205a2	0.18947461
222	0xbe5aacf3	-0.21355037
223	0x3dc044ca	0.093881205
224	0xbd447b4a	-0.04796914
225	0xbdccd800	-0.10002136
226	0x3ddd8694	0.10816684
227	0x3d431d85	0.047635574
228	0x3ddf40e9	0.109010525
229	0x3e11ea5d	0.14249559
230	0x3e6be019	0.23034705
231	0x3dab2cce	0.08358155
232	0x3e42d286	0.19025621
233	0xbc2e66ec	-0.010644656
234	0xbddb193a	-0.10698171
235	0xbd8f1388	-0.06986147
236	0x3ca0e882	0.019642118
237	0xbd613601	-0.054983143
238	0x3e12cbd8	0.14335573
239	0x3e8939fd	0.26802054
240	0xbe153923	-0.14572577
241	0x3dd35d9b	0.10320588
242	0xbcc20d55	-0.023687998
243	0x3c1167df	0.008874862
244	0x3b2d8b81	0.0026480856
245	0x3dd22299	0.10260505
246	0x3ccabd92	0.024748597
247	0x3e0c925e	0.1372771
248	0xbbb567bf	-0.005536049
249	0x3e5c5fd3	0.21520929
250	0xbd63229a	-0.05545292
251	0xbe340b2d	-0.17582388
252	0x3da60909	0.08107192
253	0xbd015dd5	-0.031583626
254	0xbad728cb	-0.0016415355
255	0x3dc37e12	0.095455304

fc3.bias f4 [4]
0	0x3d0655c8	0.03279665
1	0x3d544787	0.051826026
2	0xbcee8141	-0.029114367
3	0xbade8f56	-0.0016979973
