model.pt (torch, 89957 bytes, 6 tensors)

fc1.weight f4 [128, 37]
000000 95 a6 18 be ac 03 9e bd 37 1e 1f 3e 8e 2b e5 bc
       -0.14907296 -0.07715544 0.1553887 -0.02797487
000010 86 e6 72 bd 53 da 20 bd a7 51 81 be 11 f8 a7 bd
       -0.059301876 -0.03927071 -0.25257608 -0.08201612
000020 36 66 a1 3d e0 c9 cb be a6 77 41 3e e9 ce c5 3c
       0.07880823 -0.39802456 0.18893299 0.024146514
000030 d3 66 29 3e ac 5c 0d 3e a1 fb 04 be 00 ab 92 3d
       0.1654313 0.13804883 -0.12986614 0.07161522
000040 3d 3a 1c be c0 d4 b5 3d 64 cb 05 bd 87 22 bb bd
       -0.15256591 0.088784695 -0.03266467 -0.09137445
000050 22 1c ab 3d ba b5 07 be dc 77 d4 bc b7 30 f0 3d
       0.08354975 -0.13252917 -0.02593606 0.117280416
000060 17 be c1 3d cc e1 7c 3b ee a9 4e be af ea 2a 3c
       0.09460085 0.0038586734 -0.2018201 0.0104319295
000070 b9 75 09 3e 52 0e e0 3c 2c a0 2e bd 04 aa 30 3e
       0.13423814 0.027350578 -0.04263322 0.17252356
000080 59 18 0b 3e a9 99 84 3d 9b f4 45 3e 98 16 9f 3d
       0.13583507 0.06474621 0.19331591 0.07767981
000090 e1 c1 de 3c 56 d3 3d 3d f5 a0 e7 bd df 4f d9 3c
       0.027192058 0.046344124 -0.11309997 0.026527343
0000a0 f3 d2 6f 3d 80 56 69 3b 81 80 17 3d be 09 50 bd
       0.058550786 0.0035604537 0.036987785 -0.05079054
0000b0 29 08 58 be 7a 59 18 3e db b6 38 be 01 61 63 be
       -0.21096863 0.14877883 -0.18038504 -0.22204973
0000c0 39 bd 1f 3e 94 5d 10 bd 39 c4 52 3d 9f ac fd 3d
       0.15599526 -0.035245493 0.051456664 0.123864405
0000d0 ad aa f1 3d 8b 6b e6 bc 1f 0c 2f 3e 02 c6 85 3d
       0.11800132 -0.028127452 0.17094468 0.065319076
0000e0 f5 9b 87 bd 42 1e 4a 3c 4e 92 06 bd 0e f0 02 3e
       -0.06621543 0.012336316 -0.03285437 0.12786886
0000f0 87 f7 e9 3d 91 03 28 bc d7 44 94 ba dc 32 37 3e
       0.11424165 -0.010254757 -0.001131202 0.17890495
000100 35 68 de bd bc d8 7a bc c7 26 2f 3d da 46 09 3e
       -0.1085972 -0.015310463 0.04276159 0.13405934
000110 cb e5 b8 b9 b6 c7 40 3e e7 8e ca 3d 8a c0 da bd
       -0.00035266424 0.18826184 0.09890538 -0.10681255
000120 72 0e 28 bd 4a 2a 9b bd b8 68 ba bd 3c f5 3d bd
       -0.0410294 -0.075764254 -0.09102005 -0.04637645
000130 7f 08 5f bd 6b 41 42 bd ec 9b 81 3b 48 e0 30 3c
       -0.054451462 -0.04742567 0.003955355 0.01079566
000140 93 4c 07 3e e4 e0 30 3e 56 5d c8 bd 93 0c 03 3d
       0.13212804 0.17273289 -0.097834274 0.031994414
000150 eb 72 b8 3d ae df e4 bd 3d 3b ae bd 99 d1 a7 bd
       0.09006294 -0.11175476 -0.085073926 -0.081942745
000160 c5 08 14 3e ff 27 4e be aa f9 52 bd cc 4b 73 3d
       0.1445647 -0.20132445 -0.05150763 0.059398457
000170 f7 d2 c9 bc 1f 2b ae bd b2 b6 ac bd 87 1b 83 bc
       -0.024636729 -0.085043184 -0.08433284 -0.016004337
000180 10 f4 b3 3d c0 cf 0a bd d5 44 33 be ce 72 19 be
       0.087867856 -0.033889532 -0.17506726 -0.14985201
000190 fe b2 6b 3d 57 c7 30 bd 18 33 2c 3e ba f4 2b 3e
       0.057543747 -0.043158855 0.16816366 0.16792575
0001a0 4a fa 0a 3e 31 89 c4 bd ba 64 ee bc ee 80 92 be
       0.1357204 -0.0959648 -0.029100765 -0.2861399
0001b0 5a 05 53 be a9 1e 35 3d 1b d1 0a 3e 4c 44 f1 3d
       -0.2060751 0.044218693 0.1355633 0.11780605
0001c0 36 d2 f5 3c 70 d2 08 3e a7 62 5a 3e ca 0c a8 3c
       0.030007463 0.13361526 0.21326695 0.02051391
0001d0 f3 d7 df bd f3 c7 06 be 11 43 3c be 57 cc a3 3d
       -0.10929861 -0.13162212 -0.18384959 0.07997959
0001e0 c8 c9 5a 3e 80 14 74 3d 75 62 98 3d da 9b 3c bd
       0.21366036 0.059589863 0.07440654 -0.04604707
0001f0 0a 99 91 bc d4 d3 38 3e de 77 23 3e 69 cc 39 bd
       -0.01777317 0.18049556 0.15963694 -0.045360956
000200 e1 25 2f 3e 8b b1 33 bd f9 cf 81 bd c8 76 02 3e
       0.17104293 -0.04387049 -0.06338496 0.12740624
000210 14 09 8f 3d aa 4c d7 bd 81 39 58 bd 49 61 96 3d
       0.069841534 -0.105126694 -0.052789215 0.073427744
000220 e1 d2 c0 3d 39 67 48 3e bf 02 ab be 40 77 1e 3d
       0.09415222 0.19570626 -0.33400533 0.038687944
000230 99 7f 2d be e9 0d 36 3e a8 7d 4b 3d cc a3 0b 3e
       -0.16943206 0.17778744 0.049680382 0.13636702
000240 c5 dc 79 3d 3e 28 c3 bd 88 79 32 bc d1 b9 5c 3b
       0.061001558 -0.0952916 -0.010893233 0.003368009
000250 0d dd 65 3d a3 23 85 3b 4d 72 df bb 26 c1 29 be
       0.056119014 0.004063086 -0.0068190456 -0.16577587
000260 b2 66 e4 3d b5 cc 48 be 00 dd 87 3d 79 df 39 3d
       0.111524 -0.1960934 0.06633949 0.045379136
000270 fc 97 a0 3e 5c 39 f8 3e 1d a5 b2 3d f8 70 29 be
       0.31365955 0.48481262 0.08722899 -0.16547
000280 22 59 54 bd aa 7c 4b be a1 96 a3 bc d7 51 09 3e
       -0.051842816 -0.19871774 -0.019969286 0.13410126
000290 69 14 5f bd 07 c9 ab 3b 8c 85 44 3e 8b 79 c2 3d
       -0.054462824 0.00524247 0.19191569 0.09495839
0002a0 ec d0 6e 3c b5 8a 94 3d 46 78 8f 3d e2 e0 15 be
       0.014576178 0.07253019 0.07005362 -0.14636567
0002b0 10 19 57 be ed 06 f4 3a 5b 7c a0 bd 05 5f 09 be
       -0.21005654 0.0018617787 -0.07836219 -0.13415153
0002c0 88 aa b0 bd b2 f2 c1 bd 85 45 af bd 02 22 e9 bd
       -0.08626276 -0.094701186 -0.08558182 -0.113834396
0002d0 90 96 17 3e 49 c7 0d 3e 2e be 6d bd dc ed 26 ba
       0.14803529 0.13845553 -0.058042698 -0.0006367841
0002e0 ae 73 e1 3d 73 df 80 3c 4a 9d 1d 3e 7f c2 a6 ba
       0.11008392 0.015731549 0.15392032 -0.0012722759
0002f0 0e 97 c1 ba 2c e1 26 be c1 7e 7a be 1c 4f 11 3e
       -0.0014769749 -0.16296834 -0.24462415 0.14190334
000300 d7 76 b1 3d 37 70 07 3e 95 f5 38 be 79 7f 35 be
       0.08665245 0.132264 -0.18062432 -0.17724408
000310 55 37 80 3d 5b a1 c8 3d cc 97 9a 3d 2f a8 88 3d
       0.06260554 0.09796401 0.07548484 0.066727035
000320 a5 ec 84 3e de 44 50 be 40 4a 9c bd fe 91 5e be
       0.25961795 -0.20338771 -0.076313496 -0.21735379
000330 ea ff bf be 2f 43 9a 3d 61 23 10 3d ce fe 1a 3e
       -0.37499934 0.075323455 0.03518999 0.15136263
000340 41 95 f3 bd da 7b cc 3c 32 12 45 3e 99 11 b0 3d
       -0.11893702 0.0249614 0.19245222 0.085971065
000350 9f 6b 42 3e 6e 7d 68 bd a7 d0 02 be b8 03 2d 3e
       0.18986367 -0.056760244 -0.12774907 0.1689595
000360 1a 41 47 3c 80 4c 41 3d 5c 16 b3 bd f9 bc 83 be
       0.0121615175 0.047192097 -0.08744499 -0.25730112
000370 c9 0f c9 3c e0 f6 25 bd 7d 67 d1 3c ff 31 90 3d
       0.02454366 -0.04051864 0.025562042 0.07040786
000380 53 36 32 bb 99 3b 8d 3d 4c 51 a9 bd b8 a7 f8 bd
       -0.0027193024 0.06896133 -0.08267459 -0.12141365
000390 fb f8 1b 3e 6a 90 c4 3d 80 ce 33 be 10 a8 d1 3e
       0.15231697 0.09597857 -0.17559242 0.40948534
0003a0 68 dd 14 3a ed 4b 35 bd 12 51 21 be 70 c7 7c bd
       0.0005678744 -0.04426186 -0.15753582 -0.061713636
0003b0 f1 d4 c8 bd 88 03 16 3e 7b 44 67 bd 98 00 cd bd
       -0.0980624 0.14649785 -0.056461792 -0.10009879
0003c0 af ad ea bd 5c 7e bf 3d cf c0 47 3d 2a f1 2b be
       -0.11458909 0.09350273 0.04876786 -0.16791216
0003d0 ac 54 23 be 80 c4 09 3d f4 31 3c be 04 fb 5a 3d
       -0.15950269 0.033634663 -0.1837843 0.053462043
0003e0 8e c4 f5 bd 7f 56 7f bc d1 8b 9e be 18 5d 5d 3d
       -0.120003805 -0.015584587 -0.30966046 0.05404386
0003f0 33 a2 8e 3e c7 b8 1d 3c 50 61 12 be 73 c1 c0 bd
       0.27858123 0.009626574 -0.14294934 -0.094118975

fc1.bias f4 [128]
000000 4d ec af 3d e8 7f bf bb 9e 34 0a be 59 56 46 3b
       0.08589993 -0.005844105 -0.13496634 0.003026387
000010 5a 84 a7 3d 9e 46 43 3e 02 42 2e 3e 6b 90 06 3e
       0.08179541 0.19069907 0.17017367 0.13141029
000020 2e ad 12 3e 12 8e 24 3e 84 34 2f 3e d7 33 43 3d
       0.14323875 0.1606982 0.17109877 0.04765686
000030 9e 35 0c 3d f5 3b b6 3c 81 fa 18 be 92 da 0e be
       0.03423082 0.022245387 -0.1493931 -0.13950565
000040 34 5e f6 bc 4b 79 82 3d ba 6f c3 bd a3 d4 87 3d
       -0.030074216 0.06370791 -0.095427945 0.06632354
000050 bc e4 33 3d 28 58 0d be c6 64 55 bd d1 02 cc 3d
       0.04391931 -0.1380316 -0.05209806 0.09961475
000060 0b 16 a6 bd 1e 00 5c 3c bd e7 96 3d 0a b6 95 3d
       -0.08109673 0.013427762 0.07368419 0.07310112
000070 de fe 6a bd 48 9f 30 bc de 74 a7 bd 37 0b 2d bd
       -0.057371967 -0.010780163 -0.081765875 -0.042247023
000080 a5 b5 72 3d e0 4b 18 3e 04 8b 11 3e 93 46 79 bd
       0.05925526 0.14872694 0.14213187 -0.06085832
000090 86 d3 b3 bd ef ed ac bd 6c db 13 3e e4 49 53 bd
       -0.08780579 -0.0844382 0.14439172 -0.05158414
0000a0 26 99 bc bd 81 88 59 3d 48 8e 31 bd b3 19 2e 3e
       -0.09208898 0.053108696 -0.04334858 0.17001991
0000b0 be e0 86 3d 24 07 05 3e 6a d1 86 3d f0 66 18 be
       0.06585835 0.12991005 0.06582911 -0.14883018
0000c0 13 57 2d be 00 82 1f bd d0 f0 66 3d 79 92 2d be
       -0.16927747 -0.038942337 0.056382 -0.16950406
0000d0 aa ae 70 bc 28 73 1a be 19 79 90 3d 5a 28 0a be
       -0.014690081 -0.15082991 0.070543475 -0.13491955
0000e0 e1 5f e0 bd 19 22 8a bd 8e 20 dc 3d 5f 90 82 bd
       -0.109557875 -0.06744785 0.10748397 -0.06375193
0000f0 9e bf 14 bd e7 c3 3d 3e f4 88 b5 bc 3a 61 9b 3c
       -0.036315553 0.18531762 -0.02216003 0.01896726
000100 61 a3 9f bd 29 58 34 bd ee 9a b3 3c e0 67 c8 bd
       -0.07794834 -0.04402939 0.021924462 -0.097854376
000110 79 24 04 3d 34 a3 04 3d 30 e1 3c bd 4f 16 e2 bd
       0.032261346 0.032382205 -0.046113193 -0.11039411
000120 10 b8 2d 3e af 01 3c bd 16 2c bd bd 3d 2e 27 3e
       0.16964746 -0.045900043 -0.09236924 0.16326232
000130 14 ad 1e 3e 96 6e 7b 3d 64 94 85 3d a9 ea a1 bd
       0.15495712 0.06138476 0.06522444 -0.07906086
000140 33 95 e7 bd 6f da 8c 3d d5 92 95 3d d6 50 12 3d
       -0.11307754 0.068776004 0.073033966 0.035721622
000150 2d 50 71 bd 4b 8b ad 3d ad 10 48 bd 16 d8 0d bb
       -0.058914352 0.08473834 -0.04884403 -0.002164369
000160 28 eb 36 3e bf 2f b8 bd de df 23 3e 9a a9 52 bd
       0.17863142 -0.08993482 0.16003367 -0.051431276
000170 5d 27 10 3e 98 b1 cb 3c 7b 47 d2 bd 27 35 76 bd
       0.14077516 0.024864957 -0.1026754 -0.060109284
000180 c4 90 da bc da b4 07 bc cf 80 53 3d 51 8d 07 be
       -0.026680358 -0.0082828645 0.051636513 -0.13237502
000190 e0 35 33 3e 9d b3 31 be d8 8e f9 3c be f7 8c 3d
       0.1750102 -0.17353673 0.030463621 0.068831906
0001a0 06 94 06 3e bc 65 95 3c 6c 2c ea 3c d5 55 dd 3c
       0.13142404 0.018236987 0.028585635 0.027018467
0001b0 4d 24 f9 3d 04 9d 0c be b2 a5 3a 3e 98 00 14 be
       0.12165127 -0.13731772 0.1822727 -0.14453351
0001c0 09 ff 77 3c e1 df 85 bd 5e 34 e3 3c fe 0a da 3d
       0.015136489 -0.06536842 0.027734932 0.10646628
0001d0 b0 4a 00 3e 97 6a 41 3d 6f f4 00 3e 2f ff 53 3e
       0.12528491 0.047220793 0.12593244 0.20702814
0001e0 ed 37 a5 bd fb 73 08 3e f3 a5 c9 bd db 4f 27 be
       -0.080673076 0.13325493 -0.098461054 -0.16339056
0001f0 57 9e 7a 3d 1e a8 d6 bd e1 49 d1 bd 29 32 1a bd
       0.06118616 -0.104812846 -0.102191694 -0.037645493

fc2.weight f4 [128, 128]
000000 0a ad 4d 3d 41 e5 e6 3c cb 4f 81 bc 1d 38 88 3a
       0.05021385 0.028185489 -0.015785119 0.00103927
000010 53 7d 2d bd cf cc c5 bc 64 7a b2 3d 65 78 8d bd
       -0.042355847 -0.024145512 0.087147504 -0.06907729
000020 72 59 a3 ba 4c ab 28 3d 4e 7b ca bd bb fa 67 3c
       -0.001246257 0.041178986 -0.098868 0.0141589
000030 75 01 af 3c cf b5 0b 3d 7a d5 ef 3b 0f 18 80 3d
       0.021363 0.034108933 0.0073191496 0.06254589
000040 4c e1 f4 bd b3 d9 68 bc c2 dc 6e 3d ff c0 c0 3b
       -0.119570345 -0.01421206 0.058316 0.005882382
000050 fa e9 40 3d ae 5f 31 bd e4 1c c9 bc 9a 1b 11 3d
       0.047098137 -0.043304138 -0.024549909 0.035426714
000060 6b fb 8e 3d be e1 59 bd 9d 61 e1 3c b8 50 7d 3d
       0.06981548 -0.0531938 0.027512366 0.061844558
000070 33 92 ae bc c3 70 41 b9 4f b4 92 3d 28 59 0a 3d
       -0.021309948 -0.00018447921 0.071632974 0.033776432
000080 4a dd 84 bc d0 10 2b 3d 04 87 4b bd f0 e4 a0 bc
       -0.0162188 0.04176408 -0.049689308 -0.019640416
000090 db 6f 08 bd ff 07 74 bd c1 51 0d bd 91 d8 8c ba
       -0.0333098 -0.05957794 -0.034501795 -0.0010745694
0000a0 db 4c 84 bd fa 12 8d 3d bf c3 89 3d d4 73 84 bb
       -0.064599715 0.06888385 0.06726789 -0.004042128
0000b0 b6 1a 69 bd ca 2b a8 3d 52 42 69 3d 7b cf 7d 3d
       -0.05691024 0.08211477 0.056948014 0.061965447
0000c0 3b cd 4f bc 0d d4 9b bb 3c e5 6b 3d 5a 4a 96 bb
       -0.012683208 -0.004755503 0.05759166 -0.0045865
0000d0 54 b9 8d 3d 7f a5 1f bb ab 9a b4 bd 0c b6 fd bc
       0.06920114 -0.0024360118 -0.08818563 -0.030970596
0000e0 b9 47 97 3d 97 fb 31 bd 86 e5 6f bd ed b4 85 bd
       0.07386727 -0.043452825 -0.0585685 -0.065286495
0000f0 8c 65 35 bc f8 88 9d bc ee ad 9c bc 9f 5f 95 bd
       -0.011071574 -0.01923035 -0.019125905 -0.07293629
000100 31 47 72 bd 08 71 c5 bd 6c a4 6b 3d fb 5c 81 bb
       -0.059149925 -0.096406996 0.05752985 -0.0039478517
000110 49 fe a8 bd bf ff c7 3c d8 0c 6e 3c 48 22 9e bd
       -0.08251626 0.024413941 0.014529429 -0.077213824
000120 99 ce 3b 3d 82 79 2a bd cd a9 7c bd fa 2e 7b 3c
       0.045851324 -0.041619785 -0.061685372 0.015331024
000130 e2 0c bf 3d 23 01 d0 3d 58 4e 23 3d 08 04 d8 3d
       0.09328629 0.10156467 0.039869636 0.10547644
000140 58 78 d0 bd b6 28 58 3d c0 33 b1 3d 7c e2 68 3d
       -0.10179204 0.0527732 0.08652449 0.056856617
000150 7b 2e 29 3d 41 86 d5 3c 36 9f a1 3d 15 c6 93 3d
       0.041304093 0.026064994 0.07891695 0.072155155
000160 67 93 9e 3d 2a 4a a6 bd 3b e8 75 bd 9e f9 9b bc
       0.077429585 -0.081196144 -0.060035925 -0.019039925
000170 cb ca 83 bc 3e ca b3 3d 9c 84 ed ba 46 59 7d 3d
       -0.01608791 0.08778809 -0.0018121186 0.061852716
000180 9d dc 56 3c e4 b0 b6 3d 8e bc b2 ba 2c 75 bf bd
       0.013114122 0.08920458 -0.0013636516 -0.09348521
000190 11 62 4b bd a1 00 05 bd 28 97 be bd af 06 3c bd
       -0.04965407 -0.032471303 -0.093061745 -0.04590481
0001a0 47 98 c5 bc 6e 47 8b 3b fa a8 79 3d 3b f1 39 3c
       -0.024120463 0.0042504584 0.060952164 0.011349018
0001b0 43 b0 da 3b 99 9f 54 bd e1 df 75 bd 31 f2 72 bd
       0.006673844 -0.051910017 -0.06002796 -0.059313003
0001c0 7c 0a a2 bd 39 1d 36 3d 77 01 8f 3c 1f 55 9b bd
       -0.07912156 0.044461463 0.017456753 -0.07584595
0001d0 ba a9 81 3d 3b bb a3 3d 0f bd 93 3d 0f b9 93 bc
       0.06331201 0.07994696 0.072137944 -0.018032579
0001e0 08 b8 81 3d db ab 9e bd aa da f6 3c 04 14 4a 3d
       0.06333929 -0.077476226 0.030133564 0.049335495
0001f0 bb c1 29 3b a0 3d 11 bd e9 91 5a 3d 81 05 c2 3d
       0.0025902826 -0.03545916 0.053361807 0.09473706
000200 45 61 07 be 33 7a 39 bd e1 c6 29 bd 89 97 5b bd
       -0.13220699 -0.045282554 -0.04144943 -0.053611312
000210 0d 68 20 3d bb 2a c7 bd 9d d5 e9 3b 27 3b 78 bd
       0.03916173 -0.09724947 0.0071360604 -0.060603287
000220 6a d5 9a 3c 0c 97 f1 3c ac 37 b5 3d 1e fe cf 3d
       0.018900592 0.02949097 0.08848509 0.10155891
000230 fa 92 d2 bd f6 20 26 bd da 8e 8f be 06 6e ff 3b
       -0.1028194 -0.040558778 -0.28038675 0.0077950982
000240 aa f1 e6 bc bd 6e 46 bd 6b a4 d3 3c 86 3e b6 bd
       -0.028191406 -0.048445452 0.025835237 -0.08898644
000250 cb fe 6b 3c 4f 24 e3 bd c1 cb a1 3d 98 e7 95 bd
       0.014404009 -0.1109091 0.07900191 -0.073195636
000260 8c 9f de 3d 8d 1a a6 3d 56 d8 90 3d e7 e4 14 bd
       0.10870275 0.08110533 0.07072513 -0.03635111
000270 c9 57 90 bc 1c 9f 2b bd 5f a4 5c 3d ec fd a5 bd
       -0.017619984 -0.041899785 0.053867694 -0.081050724
000280 50 ad 83 bd 22 1d dd bd c0 4b 08 3c c2 58 9e 3d
       -0.06429541 -0.10796572 0.008318841 0.07731773
000290 5d 0f c6 3c be 30 da 3d db e5 06 3e 69 a2 44 3d
       0.024177248 0.10653828 0.1317362 0.04800645
0002a0 e6 91 5a bd 58 e5 19 be af 10 95 3c ce f5 82 3d
       -0.053361796 -0.15028894 0.018196432 0.0639454
0002b0 b2 af 11 3e f2 88 a6 3d 0e 31 20 bb 64 9e 8e 3d
       0.14227179 0.08131589 -0.0024443301 0.06963804
0002c0 36 bc c2 bc 88 56 f0 bc f8 90 8a bd 6c 4e 33 3c
       -0.023771387 -0.029338136 -0.06765932 0.01094399
0002d0 87 4b 8f bc 39 67 de bd 96 c4 28 bd df 2d bb bc
       -0.017492069 -0.10859532 -0.041203104 -0.022849021
0002e0 7f 77 17 be 0e 31 00 bc 67 e4 bd 3b a1 37 7b 3d
       -0.14791678 -0.007824196 0.00579505 0.06133235
0002f0 67 d6 41 3c 3f 98 03 bd 81 a6 8c 3d 84 e3 b0 bc
       0.011830903 -0.032127615 0.068676956 -0.021592863
000300 60 81 af 3d f1 48 71 3c 19 f1 97 3d 1c f6 6a 3c
       0.08569598 0.014726863 0.074190326 0.014340904
000310 31 7a 13 be a8 2c bb bc f7 66 ff 3d 76 f8 bd 3b
       -0.14402081 -0.022848442 0.12470811 0.005797441
000320 e6 05 ea 3c 54 5d 9d 3d 75 92 be bd 05 81 1b 3d
       0.028567266 0.076838166 -0.09305278 0.03796484
000330 5c 6f f4 3c d7 80 e7 bd cc de 4b bd 66 b9 99 3d
       0.029838257 -0.11303871 -0.049773023 0.07506065
000340 02 2f 8e bd cf b7 07 bd dc 64 45 bd b0 3e db bd
       -0.0694256 -0.033134278 -0.04819189 -0.10705316
000350 a7 0a fc 3c 4e 64 9d bd 5d 3c a5 3b 43 74 d7 3d
       0.030766798 -0.07685147 0.0050425963 0.10520222
000360 06 b4 85 bd 8d a1 40 bd dc ad 81 3d f1 85 2a bc
       -0.06528477 -0.047029067 0.06331989 -0.010407911
000370 1d 5d d1 3d 5b e8 ca 3d dc 67 bd bc a0 a4 57 3c
       0.10222838 0.099075995 -0.023120813 0.013161808
000380 7e e7 ba 3d f1 fc ce 3c da 01 0b 3d 27 d9 f0 3c
       0.09126185 0.025267096 0.033937313 0.029400421
000390 b4 3a a5 bd 2b 2c bf bd 7a c9 3a 3b 91 74 f7 bc
       -0.08067837 -0.09334596 0.0028501437 -0.03020695
0003a0 68 a0 08 be 60 95 39 3e a6 00 1d 3d 12 56 09 3d
       -0.1334244 0.18123388 0.038330697 0.03352935
0003b0 5f 6a 81 bb 43 79 2e 3c dd 50 32 bd 39 7b 45 bd
       -0.003949448 0.010649028 -0.04353415 -0.048213217
0003c0 c6 b2 5b 3d 28 61 9f 3c 4d c1 1a bc 71 5a ca 3c
       0.05363729 0.019455507 -0.009445501 0.024701329
0003d0 70 2f 05 bb 77 9a 38 bd 57 1e cb 3d a9 2b 63 3d
       -0.0020322464 -0.045069184 0.09917896 0.05546156
0003e0 07 d2 ce 3d 7f 79 b5 3c 07 8c 23 3d d4 14 3a bd
       0.10098653 0.02215266 0.039928462 -0.04543002
0003f0 9d fd e5 3a 2c 99 55 bd 3d 56 1f 3c a3 5a 3c 3d
       0.0017546896 -0.05214803 0.009725151 0.045984875

fc2.bias f4 [128]
000000 e5 4a 95 3d b9 20 47 bc ac 4b a8 3d e9 fd ab 3d
       0.072896756 -0.012153798 0.08217558 0.08398039
000010 e4 23 04 3d 50 8d 14 3d e7 cf 0c 3d b0 bb 5a bd
       0.03226079 0.03626758 0.03437796 -0.05340165
000020 d1 2b c9 bb 48 21 33 bc b2 ea c0 bd 09 ec 8a bd
       -0.0061392565 -0.010933228 -0.094197646 -0.067833014
000030 7c 2f 1a bd af 66 67 3d 16 92 d0 3d d9 b3 a0 bd
       -0.03764294 0.05649441 0.10184114 -0.07846803
000040 a7 7e 75 3d 19 a7 7e bd 29 b6 08 bd ce b0 c0 3d
       0.05993524 -0.062171075 -0.033376846 0.09408723
000050 67 91 ac 3d a3 3b 59 3d d7 7b da bd 5c fb 8d bd
       0.08426171 0.05303539 -0.10668152 -0.069327086
000060 26 f0 5e 3d 11 01 45 3c 5c 51 40 3d 20 4b 79 bc
       0.054428242 0.01202418 0.04695259 -0.015215665
000070 87 01 86 bd 22 c0 85 b9 02 5e 89 bd 19 e4 f2 bb
       -0.0654326 -0.00025510887 -0.06707384 -0.0074124453
000080 72 67 ce bc 14 4f c5 bc 1a e3 41 bb 7f 20 86 3d
       -0.025195811 -0.024085559 -0.0029584826 0.06549167
000090 09 70 af 3c c0 96 a8 bd 83 b6 ae 3b 61 37 c4 3a
       0.021415727 -0.08231878 0.0053318157 0.0014970117
0000a0 85 1c 35 bd 4b 8a 3d bd c0 8b 61 bd f4 47 6e bd
       -0.04421665 -0.046274465 -0.055064917 -0.05817409
0000b0 00 1a 4f bc 21 8c 97 bd 1a d6 3c bc b8 07 a0 bc
       -0.012640476 -0.07399774 -0.011525655 -0.01953493
0000c0 56 d6 80 bd 09 22 97 3b fb fa 20 bc 83 3d b4 bd
       -0.06290881 0.0046122116 -0.009825463 -0.08800795
0000d0 f0 34 a5 3d e3 b6 04 ba 55 11 13 bc 07 5d 0a 3e
       0.08066738 -0.00050626526 -0.0089763 0.1351205
0000e0 f7 c7 d8 3d f5 5a a4 bc 8e 6c 9d 3b 09 ff 41 bd
       0.10585015 -0.020062903 0.0048042005 -0.04736236
0000f0 d4 67 43 bc c9 ca 95 bc 44 cb aa 3d 85 a3 08 3d
       -0.01192661 -0.018285172 0.08339551 0.03335907
000100 44 cc 9c 3b b2 94 6c bc a0 70 a4 3d 2a 58 5c 3d
       0.0047850925 -0.014439749 0.08029294 0.053795017
000110 8c 77 9a bc 2d 22 07 3e 2e 10 21 3d 86 03 94 bc
       -0.018855833 0.13196631 0.03932207 -0.018068086
000120 1c 03 7e 3d 69 b1 8e bd ab 5c ac 3b 46 a9 67 3d
       0.062014684 -0.06967432 0.0052600703 0.056557916
000130 0f 99 41 bd 28 1f 23 bd 66 ce a8 3c 75 3d bf 3c
       -0.04726511 -0.039824635 0.020606231 0.023344735
000140 0c d8 ca 3c ed 8b 52 bd 9f c7 ae 3d 52 56 a8 bd
       0.024761222 -0.051402975 0.085341685 -0.08219589
000150 3f f0 a4 bd 87 75 54 3d 1c aa 5d bd 9e d0 7c 3c
       -0.08053636 0.051869895 -0.054117307 0.015430598
000160 da 52 55 3c c5 15 05 bd 99 f0 b7 3c 2f d8 93 bc
       0.013020242 -0.032491464 0.022453593 -0.01804742
000170 42 0f 66 3d 0b cf c9 3c 96 45 78 ba c2 8e 5b 3d
       0.056166895 0.024634859 -0.00094708183 0.05360294
000180 c0 6d 8f bd 5f a5 06 3e 71 da 90 bd a8 2d 6b 3d
       -0.07003355 0.13149022 -0.070729144 0.057416588
000190 33 23 b7 bd 4e c4 00 3d 19 24 17 bd d0 e0 d2 bc
       -0.089422606 0.03143721 -0.03689966 -0.025741965
0001a0 f7 83 da bc d0 18 e1 3d 8b 66 c8 bc 3d 4f 03 3d
       -0.026674254 0.10991061 -0.024462959 0.03205799
0001b0 8d 7a 30 bd 1e 6a 6b 3d 32 34 da bc d5 9f c0 3d
       -0.043085624 0.057474248 -0.026636217 0.094054855
0001c0 47 20 54 bc 0b 8c 93 3d df cf cf bc 4f 83 24 bc
       -0.012947149 0.072044455 -0.025367675 -0.010041072
0001d0 3b f0 19 bd 50 fa 80 bb 8b 7e f4 bd 47 ba 89 bc
       -0.037582617 -0.0039360896 -0.11938199 -0.016812457
0001e0 ea a8 97 bd bc e0 c6 bb 39 e0 e0 bc 9e 52 c7 3c
       -0.07405265 -0.006069271 -0.027450668 0.024331387
0001f0 96 02 84 bd 10 b1 a2 bc 7c 1b c9 3d 66 1c f1 bc
       -0.06445806 -0.01985982 0.09819695 -0.029432487

fc3.weight f4 [4, 128]
000000 5b 4d 8b bc dc 64 fa bd 8b 60 e7 bc f8 5d d4 3d
       -0.01700466 -0.12226269 -0.028244277 0.103694856
000010 9b 6b a9 3d ec 94 06 3e 5e f3 55 be f6 74 a4 bd
       0.08272477 0.13142747 -0.20893618 -0.08030121
000020 fe 52 62 3e 27 fe a5 bd 1e 15 90 bd 85 ba 58 3e
       0.22101972 -0.08105116 -0.07035278 0.21164902
000030 d4 ba 02 be e6 3c 4a bd d1 8b 2d 3b c8 bd 23 bd
       -0.12766582 -0.049374484 0.0026481042 -0.03997591
000040 12 e7 94 bc 89 ce e0 39 83 8d 81 bd 20 bc b6 3d
       -0.01817659 0.0004287849 -0.06325819 0.08922601
000050 54 98 c2 3d 92 cf 9a bd f0 47 9d bd 15 54 0a be
       0.095017105 -0.07559122 -0.076797366 -0.13508637
000060 9f d1 34 3e 7f aa 48 3e 86 7c 71 bd 03 6d ea bd
       0.17658089 0.19596289 -0.058956645 -0.114465736
000070 01 e6 1c 3e bc 66 1d bc 96 af f9 bd af b6 fa bd
       0.15322115 -0.009607013 -0.121916935 -0.122418754
000080 94 9b 98 3e 82 b3 cd 3d 6e 75 98 3c ad a8 36 bd
       0.29806197 0.10044004 0.018610682 -0.044594456
000090 2c 74 56 be c8 84 df 3c 44 1a ed 3d f7 03 5b 3d
       -0.20942754 0.027284995 0.115772754 0.053470578
0000a0 86 00 27 3d 88 8e be bd d6 ff af bd 39 b2 6e bd
       0.040771984 -0.093045294 -0.08593719 -0.058275435
0000b0 5f 8a 54 3e 5c 21 32 be 87 d4 ad 3d 7d e8 bb 3d
       0.2075591 -0.17395538 0.08487802 0.09175203
0000c0 a4 2d 1b bd 5f c7 b5 3d 07 85 32 3e 98 12 c8 bd
       -0.037885323 0.08875918 0.17433558 -0.097691715
0000d0 99 56 15 3e 73 e5 6b bd 6a 6b 1f 3e 3c 8e 54 3d
       0.14583816 -0.057591867 0.15568319 0.051893458
0000e0 29 f5 80 3d 15 0e e7 bd 9e 44 5b 3c 26 e7 ca 3d
       0.062967606 -0.11281983 0.013383059 0.09907369
0000f0 ea c3 ea 3d 82 58 6c be ed 2a f5 3d 98 18 d9 bc
       0.11463149 -0.23080638 0.11971078 -0.026500985
000100 fd 1d 9a 3d f0 00 9c 3d b2 1a 06 be ae 07 82 bd
       0.07525251 0.07617366 -0.13096121 -0.06349121
000110 fb 59 16 bb 13 83 e4 3c 5a e8 0d be ba 82 a6 3d
       -0.0022941816 0.027894532 -0.13858166 0.08130403
000120 75 46 1d bd 24 07 d4 3d b3 34 4b bc 80 14 01 bd
       -0.03839727 0.103529245 -0.012402701 -0.03151369
000130 37 10 01 bc 6b 85 6e bd e6 cb 03 bd 4e 71 ea 3d
       -0.007877401 -0.058232706 -0.032176875 0.114473924
000140 6a 46 2d be 35 74 f0 bd d6 9e cb 3d cc 5c 89 bd
       -0.16921392 -0.11740915 0.09942405 -0.06707153
000150 8f 6d c3 bd be d5 eb 3d 7f 06 a8 bd ba 47 78 3d
       -0.09542381 0.115153775 -0.08204364 0.06061528
000160 ee 72 4c bd 25 ae 76 3c 26 60 76 3e af 3d c5 3d
       -0.049914293 0.015056168 0.24060115 0.09630906
000170 8f d1 de bc 17 e3 27 be fd f2 b2 bd 90 d6 05 be
       -0.027199535 -0.16395222 -0.087377526 -0.1307013
000180 d0 36 1b be 8e 9b a1 3d 2d 82 0b be b9 2b 73 3d
       -0.15157628 0.07890998 -0.13623877 0.05936787
000190 f7 60 97 bc 2d 83 17 3d 62 fe 01 3e 12 c3 a9 3d
       -0.018478854 0.036990333 0.12694696 0.0828916
0001a0 6b 08 05 be c8 96 0e 3e 31 df 22 3d 8a f0 64 3d
       -0.12991492 0.13924706 0.039763633 0.05589346
0001b0 4a b4 45 be 2d 09 89 3e 9c 5b a7 3d c3 b0 06 3e
       -0.19307056 0.26764813 0.0817177 0.13153367
0001c0 77 ac 8b bd 69 1f 9c 3d 09 5e 97 3d 64 83 a0 bc
       -0.068200044 0.076231785 0.07390983 -0.019593902
0001d0 df 7d 3d 3e 53 89 56 3d c9 8b 41 be df 72 4e bc
       0.18505047 0.052377056 -0.1890098 -0.01260063
0001e0 e8 22 f8 bc 4f 6f a6 3d 92 31 e5 3d 5d 57 f9 bd
       -0.030290082 0.08126699 0.111910954 -0.12174866
0001f0 20 e7 95 bd 78 ae fc bd 5e dd 54 bc 0e df 33 bd
       -0.07319474 -0.12337965 -0.012992231 -0.043913893
000200 5f f6 c2 3b ad 8e 08 3e ff 3e 54 bd 6b 2e 4d 3d
       0.00594978 0.13335676 -0.05181789 0.050093096
000210 35 df cb 3d 5c a5 09 3d 48 3f 08 be 69 fe 7d 3d
       0.09954683 0.033604965 -0.1330539 0.062010203
000220 11 3c 64 3e 28 89 75 bd c9 8e 98 3b 42 0f 54 3d
       0.22288539 -0.059945256 0.004655693 0.051772363
000230 82 b2 ec bd 60 fd 95 3c 8e a3 f8 3b fa 13 d3 3c
       -0.11557485 0.018309295 0.0075878566 0.025766362
000240 24 71 24 be 73 58 28 3e 19 83 f5 3d dc 51 c0 3c
       -0.16058785 0.1643999 0.119878955 0.023476534
000250 77 f7 bf 3c ee 84 30 bc 76 ff 0b 3e 17 aa 24 be
       0.02343343 -0.01077388 0.1367167 -0.16080509
000260 56 76 5d 3e e0 0b 81 3d 38 6f 25 bb 47 6e 2d bd
       0.21627173 0.06301093 -0.0025243293 -0.042341497
000270 16 74 40 bc 32 e5 8e bd cc d2 26 3d 25 92 85 bd
       -0.011746427 -0.06977309 0.040728375 -0.065220155
000280 a6 18 4e 3d 29 66 a6 3d ce 2d 38 3e 79 8b 58 3d
       0.050316475 0.08124954 0.17986223 0.052867386
000290 49 1b a9 bc bb 91 e0 3c b6 7b a7 3d 03 0c cb bd
       -0.020642893 0.02741324 0.08177893 -0.099144004
0002a0 fc 14 1d 3c aa 40 be 3d a4 e8 25 be ce 0e 2d be
       0.009587523 0.092896774 -0.16202027 -0.16900179
0002b0 84 d8 13 3e ea 01 a7 3c 8a 47 b7 bc 0d e9 51 3d
       0.14438063 0.020386655 -0.02237298 0.051247645
0002c0 21 69 c7 bd 13 28 dc 3d 03 55 65 be ae 62 38 be
       -0.097368486 0.10749831 -0.2239571 -0.18006393
0002d0 93 f7 09 3d cb 9e 73 bb eb e8 12 bd 6a 32 c3 3d
       0.03368337 -0.0037173505 -0.03586666 0.095311
0002e0 d9 af 56 3d 06 f8 60 3d 95 53 0d 3e 70 7e 58 bd
       0.052413795 0.054924034 0.13801415 -0.052854955
0002f0 eb be 2a be 84 65 57 be e4 1a ba be f0 b6 b9 bd
       -0.16674392 -0.21034819 -0.3634864 -0.09068096
000300 92 79 45 3c a8 2c 40 3e 0e 78 d1 3d 97 8f 18 bd
       0.01205291 0.18767035 0.10227977 -0.037246313
000310 f4 99 35 be 23 f4 ac 3d 10 2c 3d 3d cf 10 1e 3d
       -0.1773451 0.08445003 0.0461846 0.03859025
000320 f1 f4 f1 3d 93 38 56 3e 59 e2 11 3e d6 d0 b9 bd
       0.11814297 0.20920019 0.14246501 -0.090730354
000330 40 66 30 3d c0 0a 3d be 6c 9c ee bd cc d2 7b 3d
       0.043066263 -0.18461132 -0.11650929 0.06148033
000340 8e 43 91 3e 46 63 09 3c 73 20 ae bc 17 57 42 bd
       0.28371853 0.008385485 -0.021255707 -0.047446337
000350 b9 b6 c8 bd fe e6 1d 3d ce 34 17 3e cf 59 ef ba
       -0.098004766 0.03855037 0.14766237 -0.0018261018
000360 d2 c7 98 3d 6c a9 48 bd 48 8e 8e 3e 38 67 35 3e
       0.07459988 -0.0489897 0.27842927 0.17715156
000370 2e 02 5e 3e 4f 25 73 3b 1d a3 71 3a 71 11 18 bd
       0.21680519 0.0037101095 0.0009217726 -0.03712601
000380 fc df 9f 3d e5 89 d5 3d 9f b3 0b be 50 0f 69 bd
       0.078063935 0.10426692 -0.13642739 -0.05689937
000390 d5 03 71 be 7d 13 04 3e 96 9b 79 bd 18 5b 99 bd
       -0.23536618 0.12898059 -0.060939394 -0.07488078
0003a0 33 e1 9f 3d 0b 2e 29 3e e8 b6 c2 bd c3 4d a7 bc
       0.07806625 0.1652147 -0.09507543 -0.020422822
0003b0 e2 f8 0a be cc da 9e 3e 53 31 8c 3c b0 69 02 3d
       -0.13571504 0.31026304 0.017113363 0.031839073
0003c0 fb 69 85 3e 54 6d 46 3e f1 d3 13 3e e6 8d 94 bd
       0.2605742 0.19377643 0.14436318 -0.072536275
0003d0 cc 20 6a bc ec 9c ae bd 43 b7 c5 bc 59 d6 03 3e
       -0.014290046 -0.08526024 -0.024135238 0.12874736
0003e0 47 05 6a bd 53 d9 11 bc a1 cf 27 bd 02 9a 4f 3d
       -0.05713394 -0.008901912 -0.040969495 0.050683983
0003f0 ed 2c f6 3d 8d d1 18 3d a2 9b 84 3d 30 8d a5 bd
       0.12020288 0.03730922 0.06474997 -0.0808357

fc3.bias f4 [4]
000000 ef c2 36 bd b9 06 18 3c da 03 7d 3d ac fa 8a 3b
       -0.044619497 0.009278947 0.06177125 0.004241308
